src/model_repository/models/ED8F/NES/0.0.1/global_actor_logits/model.onnx (onnx, 59874 bytes, 2 tensors)

actor.cnn.fc.bias f4 [64]
000000 79 69 9c bc ab aa 6e 3b d8 71 41 bc c5 f3 08 3d
       -0.019093262 0.0036417644 -0.011806928 0.0334356
000010 37 33 5f 3d be e3 64 3c f6 86 f2 bc 81 8e 0f 3d
       0.0544922 0.013970314 -0.02960537 0.03504801
000020 66 bf af ba d3 8e 17 bd 49 64 72 bc 2d 9c a8 3d
       -0.0013408482 -0.037001442 -0.014794418 0.08232913
000030 87 61 d4 3d 1e e8 fa 3b 21 e3 52 bd 46 6d 0f 3d
       0.10370164 0.007657065 -0.05148614 0.03501632
000040 16 ab 61 3d 30 c1 bd bd a3 40 26 3d f2 78 57 3d
       0.0550948 -0.09265363 0.040588986 0.052605577
000050 54 c2 bf 3d 57 3c d0 3c 7d 05 91 bd 0d 66 c6 bd
       0.09363237 0.025419397 -0.07081125 -0.096874334
000060 98 bf 88 3d 6e d7 4e 3d 9f 83 78 3d 87 44 ea 3c
       0.066771686 0.05049842 0.0606724 0.02859713
000070 34 62 ae 3d 93 61 8c 3d f1 02 14 3d 4e 84 7e 3c
       0.085148245 0.06854548 0.036135618 0.015534474
000080 09 e3 b9 bd c1 a8 82 3d 2e 12 84 bd 24 d4 c6 3d
       -0.09076507 0.063798435 -0.0644878 0.09708431
000090 c7 0f 31 3d 96 d8 98 3d 2b f5 79 3d 5a cb 99 3d
       0.043227937 0.074631855 0.061024826 0.07509489
0000a0 e0 df 91 bd 0e 5e 6f bd 9c c5 95 3d e6 11 c8 ba
       -0.07122779 -0.058439307 0.073130816 -0.0015264123
0000b0 25 4b 1e bd 90 a2 53 3c 71 38 b1 bb 55 1b 61 bc
       -0.038645882 0.012917176 -0.0054083397 -0.013739427
0000c0 7c 8d 07 bd 6e 35 ef 3c 54 c5 c9 3c 83 e5 30 3c
       -0.033093914 0.029200282 0.024630226 0.010796907
0000d0 96 b8 81 bc ec 65 7d bd ef 04 e0 bc 2d b7 fe bc
       -0.015835088 -0.06186478 -0.027346103 -0.031093204
0000e0 41 16 62 bd 55 19 8b 3d 91 15 86 bd 51 77 1b bd
       -0.055197004 0.06791941 -0.06547082 -0.037955586
0000f0 74 d1 b1 3d ad 6c bc bd 72 ef a2 3d 26 ce a9 bd
       0.08682528 -0.09200416 0.07955827 -0.08291273

actor.fc2.bias f4 [32]
000000 05 7f 50 3d ae bd 6c bd bd f6 39 3d d5 ce 3d bd
       0.050902385 -0.05779808 0.045401324 -0.04633983
000010 d9 da cf 3d 3b 0e 82 3d 6a 56 af 3c 85 40 89 bd
       0.10149164 0.063503705 0.02140351 -0.06701759
000020 c9 4f 8e bd 07 f8 a4 bd f3 0d 1d ba 5d 03 85 3d
       -0.069488116 -0.0805512 -0.00059911533 0.06494782
000030 a4 92 17 3d 3d 59 2f bd ca ab 00 bd cc 09 96 3d
       0.03700508 -0.042809714 -0.03141383 0.07326087
000040 27 03 63 bd 6c ae 21 3c 72 5b 60 3d 0f 94 0c bd
       -0.05542293 0.009868246 0.05477471 -0.034320887
000050 d6 48 54 3c cf 74 8a 3d 62 48 ab ba 64 e5 f4 bc
       0.012956819 0.06760561 -0.0013067836 -0.029894538
000060 8a 75 5a 3d f7 86 90 3d 88 4a 33 bd f2 e9 6c bc
       0.05333475 0.070569925 -0.04377225 -0.014460074
000070 61 e5 29 bd bc 74 93 bc 8a 52 f9 bc be d0 ab 3c
       -0.04147852 -0.018 -0.030434866 0.02097356
