src/model_repository/models/nes_testdata/network_energy_saving/single_agent_ddpg/0.0.1/global_actor_logits/model.onnx (onnx, 61536 bytes, 2 tensors)

actor.cnn.fc.bias f4 [64]
0	0x3d6d4140	0.057923555
1	0xbd9e08c2	-0.07716514
2	0xbd9d1fdb	-0.076720916
3	0x3d693e2f	0.05694407
4	0xbd833881	-0.06407262
5	0x3d86e2b9	0.06586213
6	0xbcd401ea	-0.025879819
7	0x3dac645e	0.08417581
8	0xbd10e84b	-0.03537778
9	0x3d63483a	0.055488802
10	0xbdb7e233	-0.08978691
11	0x3d29dd14	0.041470602
12	0x3d9f31d6	0.07773177
13	0x3d72bd6b	0.059262674
14	0xbd78713d	-0.060654867
15	0xbdb4fc03	-0.0883713
16	0xbdc44bc1	-0.095847614
17	0xbbb2ee64	-0.0054605473
18	0x3d4b5006	0.049636863
19	0x3da2134b	0.07913836
20	0xbd9ec9a3	-0.07753303
21	0xbc5df32c	-0.013546746
22	0xbd71a009	-0.058990512
23	0x3ce36104	0.027756222
24	0x3d18088d	0.03711753
25	0xbc0bb562	-0.008527132
26	0xbd5808ca	-0.052742757
27	0xbdce7a1d	-0.10081885
28	0x3da31822	0.07963587
29	0xbd11edb9	-0.0356271
30	0x3d75aad0	0.059977353
31	0xbd125757	-0.035727825
32	0x3cdab9c9	0.026699917
33	0xbd1179d6	-0.035516582
34	0xbd9b946f	-0.07596671
35	0x3c992acc	0.018697165
36	0x3cfcaf58	0.03084533
37	0x3bce4186	0.006294432
38	0x3d3efcb4	0.046627715
39	0xbdaac520	-0.0833838
40	0x3d88c0c5	0.06677393
41	0xbc8192d2	-0.01581708
42	0xbd5970b3	-0.053085994
43	0x3d0280b5	0.031861026
44	0x3d4ad454	0.049518898
45	0xbda9ba0d	-0.082874395
46	0xbd8b91b5	-0.06814901
47	0x3a944c19	0.0011314183
48	0xbd3b1297	-0.045672026
49	0x3d8623e0	0.06549811
50	0xba12c9c6	-0.00055995246
51	0x3d3db221	0.046312455
52	0x3d36825f	0.044557925
53	0x3cf87fd2	0.030334387
54	0x3db126bb	0.086499654
55	0xbdc984e9	-0.09839804
56	0x3d83b05f	0.064301245
57	0x3db05833	0.08610573
58	0x3c0ae605	0.0084776925
59	0xbd309514	-0.043110922
60	0xbd356c53	-0.04429276
61	0xbc0b4a9f	-0.008501678
62	0xbc038da7	-0.008029378
63	0xbb386a04	-0.0028139362

actor.fc2.bias f4 [32]
0	0xbce4f035	-0.02794657
1	0x3d4528a4	0.04813446
2	0x3ca5a5c7	0.02022065
3	0x3c1c74aa	0.009549299
4	0x3c1b0013	0.009460467
5	0x3cbfa6d6	0.023394983
6	0x3aac3f69	0.0013141456
7	0x3dacac41	0.08431292
8	0xbd4458c3	-0.047936212
9	0x3d0ae764	0.033912078
10	0xbd274066	-0.0408329
11	0xbd18f451	-0.037342373
12	0x3b82907a	0.003984508
13	0xbc715e65	-0.014731978
14	0x3db40df2	0.08791722
15	0x3cd0bf00	0.0254817
16	0x3d24d8a4	0.040245667
17	0x3c6145a3	0.013749513
18	0x3d5362a0	0.051607728
19	0x3d16f355	0.036853153
20	0x3d9114f9	0.07084078
21	0xbd683565	-0.056691546
22	0xbd66ee3b	-0.056379538
23	0xbda6a881	-0.08137608
24	0x3d8587bc	0.0652003
25	0x3d14df07	0.036345508
26	0x3d08829c	0.033327684
27	0xbd24ee63	-0.040266406
28	0x3d913331	0.07089842
29	0x3c63422e	0.013870759
30	0xbda77602	-0.08176805
31	0x3d525987	0.05135491
